…
tio=0.75, nc=4096, num_trainable_blocks=4, num_workers=4, optim='adam', patience=3, recall_values=[1, 5, 10, 100], resize=[224, 224], save_dir='logs/2024-05-05_15-06-50-shufflenet_v2_x2_0-gemhead', seed=0, train_batch_size=160, val_set_names=['msls_val'])
2024-05-05 15:06:50   The outputs are being saved in logs/2024-05-05_15-06-50-shufflenet_v2_x2_0-gemhead
2024-05-05 15:06:50   validation dataset names:['msls_val']
2024-05-05 15:06:54   Using 2 GPUs and 64 CPUs
2024-05-05 15:06:56   GeoLocalizationNet(
  (backbone): ShuffleNet(
    (model): ShuffleNetV2(
      (conv1): Sequential(
        (0): Conv2d(3, 24, kernel_size=(3, 3), stride=(2, 2), padding=(1, 1), bias=False)
        (1): BatchNorm2d(24, eps=1e-05, momentum=0.1, affine=True, track_running_stats=True)
        (2): ReLU(inplace=True)
      )
      (maxpool): MaxPool2d(kernel_size=3, stride=2, padding=1, dilation=1, ceil_mode=False)
      (stage2): Sequential(
        (0): InvertedResidual(
          (branch1): Sequential(
            (0): Conv2d(24, 24, kernel_size=(3, 3), stride=(2, 2), padding=(1, 1), groups=24, bias=False)
            (1): BatchNorm2d(24, eps=1e-05, momentum=0.1, affine=True, track_running_stats=True)
            (2): Conv2d(24, 122, kernel_size=(1, 1), stride=(1, 1), bias=False)
            (3): BatchNorm2d(122, eps=1e-05, momentum=0.1, affine=True, track_running_stats=True)
            (4): ReLU(inplace=True)
          )
          (branch2): Sequential(
            (0): Conv2d(24, 122, kernel_size=(1, 1), stride=(1, 1), bias=False)
            (1): BatchNorm2d(122, eps=1e-05, momentum=0.1, affine=True, track_running_stats=True)
            (2): ReLU(inplace=True)
            (3): Conv2d(122, 122, kernel_size=(3, 3), stride=(2, 2), padding=(1, 1), groups=122, bias=False)
            (4): BatchNorm2d(122, eps=1e-05, momentum=0.1, affine=True, track_running_stats=True)
            (5): Conv2d(122, 122, kernel_size=(1, 1), stride=(1, 1), bias=False)
            (6): BatchNorm2d(122, eps=1e-05, momentum=0.1, affine=True, track_running_stats=True)
            (7): ReLU(inplace=True)
          )
        )
        (1): InvertedResidual(
          (branch1): Sequential()
          (branch2): Sequential(
            (0): Conv2d(122, 122, kernel_size=(1, 1), stride=(1, 1), bias=False)
            (1): BatchNorm2d(122, eps=1e-05, momentum=0.1, affine=True, track_running_stats=True)
            (2): ReLU(inplace=True)
            (3): Conv2d(122, 122, kernel_size=(3, 3), stride=(1, 1), padding=(1, 1), groups=122, bias=False)
            (4): BatchNorm2d(122, eps=1e-05, momentum=0.1, affine=True, track_running_stats=True)
            (5): Conv2d(122, 122, kernel_size=(1, 1), stride=(1, 1), bias=False)
            (6): BatchNorm2d(122, eps=1e-05, momentum=0.1, affine=True, track_running_stats=True)
            (7): ReLU(inplace=True)
          )
        )
        (2): InvertedResidual(
          (branch1): Sequential()
          (branch2): Sequential(
            (0): Conv2d(122, 122, kernel_size=(1, 1), stride=(1, 1), bias=False)
            (1): BatchNorm2d(122, eps=1e-05, momentum=0.1, affine=True, track_running_stats=True)
            (2): ReLU(inplace=True)
            (3): Conv2d(122, 122, kernel_size=(3, 3), stride=(1, 1), padding=(1, 1), groups=122, bias=False)
            (4): BatchNorm2d(122, eps=1e-05, momentum=0.1, affine=True, track_running_stats=True)
            (5): Conv2d(122, 122, kernel_size=(1, 1), stride=(1, 1), bias=False)
            (6): BatchNorm2d(122, eps=1e-05, momentum=0.1, affine=True, track_running_stats=True)
            (7): ReLU(inplace=True)
          )
        )
        (3): InvertedResidual(
          (branch1): Sequential()
          (branch2): Sequential(
            (0): Conv2d(122, 122, kernel_size=(1, 1), stride=(1, 1), bias=False)
            (1): BatchNorm2d(122, eps=1e-05, momentum=0.1, affine=True, track_running_stats=True)
            (2): ReLU(inplace=True)
            (3): Conv2d(122, 122, kernel_size=(3, 3), stride=(1, 1), padding=(1, 1), groups=122, bias=False)
            (4): BatchNorm2d(122, eps=1e-05, momentum=0.1, affine=True, track_running_stats=True)
            (5): Conv2d(122, 122, kernel_size=(1, 1), stride=(1, 1), bias=False)
            (6): BatchNorm2d(122, eps=1e-05, momentum=0.1, affine=True, track_running_stats=True)
            (7): ReLU(inplace=True)
          )
        )
      )
      (stage3): Sequential(
        (0): InvertedResidual(
          (branch1): Sequential(
            (0): Conv2d(244, 244, kernel_size=(3, 3), stride=(2, 2), padding=(1, 1), groups=244, bias=False)
            (1): BatchNorm2d(244, eps=1e-05, momentum=0.1, affine=True, track_running_stats=True)
            (2): Conv2d(244, 244, kernel_size=(1, 1), stride=(1, 1), bias=False)
            (3): BatchNorm2d(244, eps=1e-05, momentum=0.1, affine=True, track_running_stats=True)
            (4): ReLU(inplace=True)
          )
          (branch2): Sequential(
            (0): Conv2d(244, 244, kernel_size=(1, 1), stride=(1, 1), bias=False)
            (1): BatchNorm2d(244, eps=1e-05, momentum=0.1, affine=True, track_running_stats=True)
            (2): ReLU(inplace=True)
            (3): Conv2d(244, 244, kernel_size=(3, 3), stride=(2, 2), padding=(1, 1), groups=244, bias=False)
            (4): BatchNorm2d(244, eps=1e-05, momentum=0.1, affine=True, track_running_stats=True)
            (5): Conv2d(244, 244, kernel_size=(1, 1), stride=(1, 1), bias=False)
            (6): BatchNorm2d(244, eps=1e-05, momentum=0.1, affine=True, track_running_stats=True)
            (7): ReLU(inplace=True)
          )
        )
        (1): InvertedResidual(
          (branch1): Sequential()
          (branch2): Sequential(
            (0): Conv2d(244, 244, kernel_size=(1, 1), stride=(1, 1), bias=False)
            (1): BatchNorm2d(244, eps=1e-05, momentum=0.1, affine=True, track_running_stats=True)
            (2): ReLU(inplace=True)
            (3): Conv2d(244, 244, kernel_size=(3, 3), stride=(1, 1), padding=(1, 1), groups=244, bias=False)
            (4): BatchNorm2d(244, eps=1e-05, momentum=0.1, affine=True, track_running_stats=True)
            (5): Conv2d(244, 244, kernel_size=(1, 1), stride=(1, 1), bias=False)
            (6): BatchNorm2d(244, eps=1e-05, momentum=0.1, affine=True, track_running_stats=True)
            (7): ReLU(inplace=True)
          )
        )
        (2): InvertedResidual(
          (branch1): Sequential()
          (branch2): Sequential(
            (0): Conv2d(244, 244, kernel_size=(1, 1), stride=(1, 1), bias=False)
            (1): BatchNorm2d(244, eps=1e-05, momentum=0.1, affine=True, track_running_stats=True)
            (2): ReLU(inplace=True)
            (3): Conv2d(244, 244, kernel_size=(3, 3), stride=(1, 1), padding=(1, 1), groups=244, bias=False)
            (4): BatchNorm2d(244, eps=1e-05, momentum=0.1, affine=True, track_running_stats=True)
            (5): Conv2d(244, 244, kernel_size=(1, 1), stride=(1, 1), bias=False)
            (6): BatchNorm2d(244, eps=1e-05, momentum=0.1, affine=True, track_running_stats=True)
            (7): ReLU(inplace=True)
          )
        )
        (3): InvertedResidual(
          (branch1): Sequential()
          (branch2): Sequential(
            (0): Conv2d(244, 244, kernel_size=(1, 1), stride=(1, 1), bias=False)
            (1): BatchNorm2d(244, eps=1e-05, momentum=0.1, affine=True, track_running_stats=True)
            (2): ReLU(inplace=True)
            (3): Conv2d(244, 244, kernel_size=(3, 3), stride=(1, 1), padding=(1, 1), groups=244, bias=False)
            (4): BatchNorm2d(244, eps=1e-05, momentum=0.1, affine=True, track_running_stats=True)
            (5): Conv2d(244, 244, kernel_size=(1, 1), stride=(1, 1), bias=False)
            (6): BatchNorm2d(244, eps=1e-05, momentum=0.1, affine=True, track_running_stats=True)
            (7): ReLU(inplace=True)
          )
        )
        (4): InvertedResidual(
          (branch1): Sequential()
          (branch2): Sequential(
            (0): Conv2d(244, 244, kernel_size=(1, 1), stride=(1, 1), bias=False)
            (1): BatchNorm2d(244, eps=1e-05, momentum=0.1, affine=True, track_running_stats=True)
            (2): ReLU(inplace=True)
            (3): Conv2d(244, 244, kernel_size=(3, 3), stride=(1, 1), padding=(1, 1), groups=244, bias=False)
            (4): BatchNorm2d(244, eps=1e-05, momentum=0.1, affine=True, track_running_stats=True)
            (5): Conv2d(244, 244, kernel_size=(1, 1), stride=(1, 1), bias=False)
            (6): BatchNorm2d(244, eps=1e-05, momentum=0.1, affine=True, track_running_stats=True)
            (7): ReLU(inplace=True)
          )
        )
        (5): InvertedResidual(
          (branch1): Sequential()
          (branch2): Sequential(
            (0): Conv2d(244, 244, kernel_size=(1, 1), stride=(1, 1), bias=False)
            (1): BatchNorm2d(244, eps=1e-05, momentum=0.1, affine=True, track_running_stats=True)
            (2): ReLU(inplace=True)
            (3): Conv2d(244, 244, kernel_size=(3, 3), stride=(1, 1), padding=(1, 1), groups=244, bias=False)
            (4): BatchNorm2d(244, eps=1e-05, momentum=0.1, affine=True, track_running_stats=True)
            (5): Conv2d(244, 244, kernel_size=(1, 1), stride=(1, 1), bias=False)
            (6): BatchNorm2d(244, eps=1e-05, momentum=0.1, affine=True, track_running_stats=True)
            (7): ReLU(inplace=True)
          )
        )
        (6): InvertedResidual(
          (branch1): Sequential()
          (branch2): Sequential(
            (0): Conv2d(244, 244, kernel_size=(1, 1), stride=(1, 1), bias=False)
            (1): BatchNorm2d(244, eps=1e-05, momentum=0.1, affine=True, track_running_stats=True)
            (2): ReLU(inplace=True)
            (3): Conv2d(244, 244, kernel_size=(3, 3), stride=(1, 1), padding=(1, 1), groups=244, bias=False)
            (4): BatchNorm2d(244, eps=1e-05, momentum=0.1, affine=True, track_running_stats=True)
            (5): Conv2d(244, 244, kernel_size=(1, 1), stride=(1, 1), bias=False)
            (6): BatchNorm2d(244, eps=1e-05, momentum=0.1, affine=True, track_running_stats=True)
            (7): ReLU(inplace=True)
          )
        )
        (7): InvertedResidual(
          (branch1): Sequential()
          (branch2): Sequential(
            (0): Conv2d(244, 244, kernel_size=(1, 1), stride=(1, 1), bias=False)
            (1): BatchNorm2d(244, eps=1e-05, momentum=0.1, affine=True, track_running_stats=True)
            (2): ReLU(inplace=True)
            (3): Conv2d(244, 244, kernel_size=(3, 3), stride=(1, 1), padding=(1, 1), groups=244, bias=False)
            (4): BatchNorm2d(244, eps=1e-05, momentum=0.1, affine=True, track_running_stats=True)
            (5): Conv2d(244, 244, kernel_size=(1, 1), stride=(1, 1), bias=False)
            (6): BatchNorm2d(244, eps=1e-05, momentum=0.1, affine=True, track_running_stats=True)
            (7): ReLU(inplace=True)
          )
        )
      )
      (stage4): Sequential(
        (0): InvertedResidual(
          (branch1): Sequential(
            (0): Conv2d(488, 488, kernel_size=(3, 3), stride=(2, 2), padding=(1, 1), groups=488, bias=False)
            (1): BatchNorm2d(488, eps=1e-05, momentum=0.1, affine=True, track_running_stats=True)
            (2): Conv2d(488, 488, kernel_size=(1, 1), stride=(1, 1), bias=False)
            (3): BatchNorm2d(488, eps=1e-05, momentum=0.1, affine=True, track_running_stats=True)
            (4): ReLU(inplace=True)
          )
          (branch2): Sequential(
            (0): Conv2d(488, 488, kernel_size=(1, 1), stride=(1, 1), bias=False)
            (1): BatchNorm2d(488, eps=1e-05, momentum=0.1, affine=True, track_running_stats=True)
            (2): ReLU(inplace=True)
            (3): Conv2d(488, 488, kernel_size=(3, 3), stride=(2, 2), padding=(1, 1), groups=488, bias=False)
            (4): BatchNorm2d(488, eps=1e-05, momentum=0.1, affine=True, track_running_stats=True)
            (5): Conv2d(488, 488, kernel_size=(1, 1), stride=(1, 1), bias=False)
            (6): BatchNorm2d(488, eps=1e-05, momentum=0.1, affine=True, track_running_stats=True)
            (7): ReLU(inplace=True)
          )
        )
        (1): InvertedResidual(
          (branch1): Sequential()
          (branch2): Sequential(
            (0): Conv2d(488, 488, kernel_size=(1, 1), stride=(1, 1), bias=False)
            (1): BatchNorm2d(488, eps=1e-05, momentum=0.1, affine=True, track_running_stats=True)
            (2): ReLU(inplace=True)
            (3): Conv2d(488, 488, kernel_size=(3, 3), stride=(1, 1), padding=(1, 1), groups=488, bias=False)
            (4): BatchNorm2d(488, eps=1e-05, momentum=0.1, affine=True, track_running_stats=True)
            (5): Conv2d(488, 488, kernel_size=(1, 1), stride=(1, 1), bias=False)
            (6): BatchNorm2d(488, eps=1e-05, momentum=0.1, affine=True, track_running_stats=True)
            (7): ReLU(inplace=True)
          )
        )
        (2): InvertedResidual(
          (branch1): Sequential()
          (branch2): Sequential(
            (0): Conv2d(488, 488, kernel_size=(1, 1), stride=(1, 1), bias=False)
            (1): BatchNorm2d(488, eps=1e-05, momentum=0.1, affine=True, track_running_stats=True)
            (2): ReLU(inplace=True)
            (3): Conv2d(488, 488, kernel_size=(3, 3), stride=(1, 1), padding=(1, 1), groups=488, bias=False)
            (4): BatchNorm2d(488, eps=1e-05, momentum=0.1, affine=True, track_running_stats=True)
            (5): Conv2d(488, 488, kernel_size=(1, 1), stride=(1, 1), bias=False)
            (6): BatchNorm2d(488, eps=1e-05, momentum=0.1, affine=True, track_running_stats=True)
            (7): ReLU(inplace=True)
          )
        )
        (3): InvertedResidual(
          (branch1): Sequential()
          (branch2): Sequential(
            (0): Conv2d(488, 488, kernel_size=(1, 1), stride=(1, 1), bias=False)
            (1): BatchNorm2d(488, eps=1e-05, momentum=0.1, affine=True, track_running_stats=True)
            (2): ReLU(inplace=True)
            (3): Conv2d(488, 488, kernel_size=(3, 3), stride=(1, 1), padding=(1, 1), groups=488, bias=False)
            (4): BatchNorm2d(488, eps=1e-05, momentum=0.1, affine=True, track_running_stats=True)
            (5): Conv2d(488, 488, kernel_size=(1, 1), stride=(1, 1), bias=False)
            (6): BatchNorm2d(488, eps=1e-05, momentum=0.1, affine=True, track_running_stats=True)
            (7): ReLU(inplace=True)
          )
        )
      )
      (conv5): Sequential(
        (0): Conv2d(976, 2048, kernel_size=(1, 1), stride=(1, 1), bias=False)
        (1): BatchNorm2d(2048, eps=1e-05, momentum=0.1, affine=True, track_running_stats=True)
        (2): ReLU(inplace=True)
      )
      (fc): None
    )
  )
  (aggregator): GeMHead(
    (pool): GeneralizedMeanPooling(3.0, output_size=1)
    (fc): Linear(in_features=2048, out_features=4096, bias=True)
  )
)
2024-05-05 15:06:57   Val set: < MSLS, msls-val - #database: 18871; #queries: 747 >
2024-05-05 15:06:57   Start training epoch: 00
2024-05-05 15:16:57   Finished epoch 00 in 0:09:59, average epoch loss = 1.0403
2024-05-05 15:17:30   Ranking results: msls_val R@1: 0.4257, R@5: 0.5851, R@10: 0.6473, R@15: 0.6811, R@20: 0.7081, R@50: 0.7608, R@100: 0.8081
…
