…
nc=4096, num_trainable_blocks=4, num_workers=4, optim='adam', patience=3, recall_values=[1, 5, 10, 100], resize=[224, 224], save_dir='logs/2024-05-05_11-18-27-shufflenet_v2_x1_0-token_module', seed=0, train_batch_size=160, val_set_names=['msls_val'])
2024-05-05 11:18:27   The outputs are being saved in logs/2024-05-05_11-18-27-shufflenet_v2_x1_0-token_module
2024-05-05 11:18:27   validation dataset names:['msls_val']
2024-05-05 11:18:27   Using 2 GPUs and 64 CPUs
2024-05-05 11:18:28   GeoLocalizationNet(
  (backbone): ShuffleNet(
    (model): ShuffleNetV2(
      (conv1): Sequential(
        (0): Conv2d(3, 24, kernel_size=(3, 3), stride=(2, 2), padding=(1, 1), bias=False)
        (1): BatchNorm2d(24, eps=1e-05, momentum=0.1, affine=True, track_running_stats=True)
        (2): ReLU(inplace=True)
      )
      (maxpool): MaxPool2d(kernel_size=3, stride=2, padding=1, dilation=1, ceil_mode=False)
      (stage2): Sequential(
        (0): InvertedResidual(
          (branch1): Sequential(
            (0): Conv2d(24, 24, kernel_size=(3, 3), stride=(2, 2), padding=(1, 1), groups=24, bias=False)
            (1): BatchNorm2d(24, eps=1e-05, momentum=0.1, affine=True, track_running_stats=True)
            (2): Conv2d(24, 58, kernel_size=(1, 1), stride=(1, 1), bias=False)
            (3): BatchNorm2d(58, eps=1e-05, momentum=0.1, affine=True, track_running_stats=True)
            (4): ReLU(inplace=True)
          )
          (branch2): Sequential(
            (0): Conv2d(24, 58, kernel_size=(1, 1), stride=(1, 1), bias=False)
            (1): BatchNorm2d(58, eps=1e-05, momentum=0.1, affine=True, track_running_stats=True)
            (2): ReLU(inplace=True)
            (3): Conv2d(58, 58, kernel_size=(3, 3), stride=(2, 2), padding=(1, 1), groups=58, bias=False)
            (4): BatchNorm2d(58, eps=1e-05, momentum=0.1, affine=True, track_running_stats=True)
            (5): Conv2d(58, 58, kernel_size=(1, 1), stride=(1, 1), bias=False)
            (6): BatchNorm2d(58, eps=1e-05, momentum=0.1, affine=True, track_running_stats=True)
            (7): ReLU(inplace=True)
          )
        )
        (1): InvertedResidual(
          (branch1): Sequential()
          (branch2): Sequential(
            (0): Conv2d(58, 58, kernel_size=(1, 1), stride=(1, 1), bias=False)
            (1): BatchNorm2d(58, eps=1e-05, momentum=0.1, affine=True, track_running_stats=True)
            (2): ReLU(inplace=True)
            (3): Conv2d(58, 58, kernel_size=(3, 3), stride=(1, 1), padding=(1, 1), groups=58, bias=False)
            (4): BatchNorm2d(58, eps=1e-05, momentum=0.1, affine=True, track_running_stats=True)
            (5): Conv2d(58, 58, kernel_size=(1, 1), stride=(1, 1), bias=False)
            (6): BatchNorm2d(58, eps=1e-05, momentum=0.1, affine=True, track_running_stats=True)
            (7): ReLU(inplace=True)
          )
        )
        (2): InvertedResidual(
          (branch1): Sequential()
          (branch2): Sequential(
            (0): Conv2d(58, 58, kernel_size=(1, 1), stride=(1, 1), bias=False)
            (1): BatchNorm2d(58, eps=1e-05, momentum=0.1, affine=True, track_running_stats=True)
            (2): ReLU(inplace=True)
            (3): Conv2d(58, 58, kernel_size=(3, 3), stride=(1, 1), padding=(1, 1), groups=58, bias=False)
            (4): BatchNorm2d(58, eps=1e-05, momentum=0.1, affine=True, track_running_stats=True)
            (5): Conv2d(58, 58, kernel_size=(1, 1), stride=(1, 1), bias=False)
            (6): BatchNorm2d(58, eps=1e-05, momentum=0.1, affine=True, track_running_stats=True)
            (7): ReLU(inplace=True)
          )
        )
        (3): InvertedResidual(
          (branch1): Sequential()
          (branch2): Sequential(
            (0): Conv2d(58, 58, kernel_size=(1, 1), stride=(1, 1), bias=False)
            (1): BatchNorm2d(58, eps=1e-05, momentum=0.1, affine=True, track_running_stats=True)
            (2): ReLU(inplace=True)
            (3): Conv2d(58, 58, kernel_size=(3, 3), stride=(1, 1), padding=(1, 1), groups=58, bias=False)
            (4): BatchNorm2d(58, eps=1e-05, momentum=0.1, affine=True, track_running_stats=True)
            (5): Conv2d(58, 58, kernel_size=(1, 1), stride=(1, 1), bias=False)
            (6): BatchNorm2d(58, eps=1e-05, momentum=0.1, affine=True, track_running_stats=True)
            (7): ReLU(inplace=True)
          )
        )
      )
      (stage3): Sequential(
        (0): InvertedResidual(
          (branch1): Sequential(
            (0): Conv2d(116, 116, kernel_size=(3, 3), stride=(2, 2), padding=(1, 1), groups=116, bias=False)
            (1): BatchNorm2d(116, eps=1e-05, momentum=0.1, affine=True, track_running_stats=True)
            (2): Conv2d(116, 116, kernel_size=(1, 1), stride=(1, 1), bias=False)
            (3): BatchNorm2d(116, eps=1e-05, momentum=0.1, affine=True, track_running_stats=True)
            (4): ReLU(inplace=True)
          )
          (branch2): Sequential(
            (0): Conv2d(116, 116, kernel_size=(1, 1), stride=(1, 1), bias=False)
            (1): BatchNorm2d(116, eps=1e-05, momentum=0.1, affine=True, track_running_stats=True)
            (2): ReLU(inplace=True)
            (3): Conv2d(116, 116, kernel_size=(3, 3), stride=(2, 2), padding=(1, 1), groups=116, bias=False)
            (4): BatchNorm2d(116, eps=1e-05, momentum=0.1, affine=True, track_running_stats=True)
            (5): Conv2d(116, 116, kernel_size=(1, 1), stride=(1, 1), bias=False)
            (6): BatchNorm2d(116, eps=1e-05, momentum=0.1, affine=True, track_running_stats=True)
            (7): ReLU(inplace=True)
          )
        )
        (1): InvertedResidual(
          (branch1): Sequential()
          (branch2): Sequential(
            (0): Conv2d(116, 116, kernel_size=(1, 1), stride=(1, 1), bias=False)
            (1): BatchNorm2d(116, eps=1e-05, momentum=0.1, affine=True, track_running_stats=True)
            (2): ReLU(inplace=True)
            (3): Conv2d(116, 116, kernel_size=(3, 3), stride=(1, 1), padding=(1, 1), groups=116, bias=False)
            (4): BatchNorm2d(116, eps=1e-05, momentum=0.1, affine=True, track_running_stats=True)
            (5): Conv2d(116, 116, kernel_size=(1, 1), stride=(1, 1), bias=False)
            (6): BatchNorm2d(116, eps=1e-05, momentum=0.1, affine=True, track_running_stats=True)
            (7): ReLU(inplace=True)
          )
        )
        (2): InvertedResidual(
          (branch1): Sequential()
          (branch2): Sequential(
            (0): Conv2d(116, 116, kernel_size=(1, 1), stride=(1, 1), bias=False)
            (1): BatchNorm2d(116, eps=1e-05, momentum=0.1, affine=True, track_running_stats=True)
            (2): ReLU(inplace=True)
            (3): Conv2d(116, 116, kernel_size=(3, 3), stride=(1, 1), padding=(1, 1), groups=116, bias=False)
            (4): BatchNorm2d(116, eps=1e-05, momentum=0.1, affine=True, track_running_stats=True)
            (5): Conv2d(116, 116, kernel_size=(1, 1), stride=(1, 1), bias=False)
            (6): BatchNorm2d(116, eps=1e-05, momentum=0.1, affine=True, track_running_stats=True)
            (7): ReLU(inplace=True)
          )
        )
        (3): InvertedResidual(
          (branch1): Sequential()
          (branch2): Sequential(
            (0): Conv2d(116, 116, kernel_size=(1, 1), stride=(1, 1), bias=False)
            (1): BatchNorm2d(116, eps=1e-05, momentum=0.1, affine=True, track_running_stats=True)
            (2): ReLU(inplace=True)
            (3): Conv2d(116, 116, kernel_size=(3, 3), stride=(1, 1), padding=(1, 1), groups=116, bias=False)
            (4): BatchNorm2d(116, eps=1e-05, momentum=0.1, affine=True, track_running_stats=True)
            (5): Conv2d(116, 116, kernel_size=(1, 1), stride=(1, 1), bias=False)
            (6): BatchNorm2d(116, eps=1e-05, momentum=0.1, affine=True, track_running_stats=True)
            (7): ReLU(inplace=True)
          )
        )
        (4): InvertedResidual(
          (branch1): Sequential()
          (branch2): Sequential(
            (0): Conv2d(116, 116, kernel_size=(1, 1), stride=(1, 1), bias=False)
            (1): BatchNorm2d(116, eps=1e-05, momentum=0.1, affine=True, track_running_stats=True)
            (2): ReLU(inplace=True)
            (3): Conv2d(116, 116, kernel_size=(3, 3), stride=(1, 1), padding=(1, 1), groups=116, bias=False)
            (4): BatchNorm2d(116, eps=1e-05, momentum=0.1, affine=True, track_running_stats=True)
            (5): Conv2d(116, 116, kernel_size=(1, 1), stride=(1, 1), bias=False)
            (6): BatchNorm2d(116, eps=1e-05, momentum=0.1, affine=True, track_running_stats=True)
            (7): ReLU(inplace=True)
          )
        )
        (5): InvertedResidual(
          (branch1): Sequential()
          (branch2): Sequential(
            (0): Conv2d(116, 116, kernel_size=(1, 1), stride=(1, 1), bias=False)
            (1): BatchNorm2d(116, eps=1e-05, momentum=0.1, affine=True, track_running_stats=True)
            (2): ReLU(inplace=True)
            (3): Conv2d(116, 116, kernel_size=(3, 3), stride=(1, 1), padding=(1, 1), groups=116, bias=False)
            (4): BatchNorm2d(116, eps=1e-05, momentum=0.1, affine=True, track_running_stats=True)
            (5): Conv2d(116, 116, kernel_size=(1, 1), stride=(1, 1), bias=False)
            (6): BatchNorm2d(116, eps=1e-05, momentum=0.1, affine=True, track_running_stats=True)
            (7): ReLU(inplace=True)
          )
        )
        (6): InvertedResidual(
          (branch1): Sequential()
          (branch2): Sequential(
            (0): Conv2d(116, 116, kernel_size=(1, 1), stride=(1, 1), bias=False)
            (1): BatchNorm2d(116, eps=1e-05, momentum=0.1, affine=True, track_running_stats=True)
            (2): ReLU(inplace=True)
            (3): Conv2d(116, 116, kernel_size=(3, 3), stride=(1, 1), padding=(1, 1), groups=116, bias=False)
            (4): BatchNorm2d(116, eps=1e-05, momentum=0.1, affine=True, track_running_stats=True)
            (5): Conv2d(116, 116, kernel_size=(1, 1), stride=(1, 1), bias=False)
            (6): BatchNorm2d(116, eps=1e-05, momentum=0.1, affine=True, track_running_stats=True)
            (7): ReLU(inplace=True)
          )
        )
        (7): InvertedResidual(
          (branch1): Sequential()
          (branch2): Sequential(
            (0): Conv2d(116, 116, kernel_size=(1, 1), stride=(1, 1), bias=False)
            (1): BatchNorm2d(116, eps=1e-05, momentum=0.1, affine=True, track_running_stats=True)
            (2): ReLU(inplace=True)
            (3): Conv2d(116, 116, kernel_size=(3, 3), stride=(1, 1), padding=(1, 1), groups=116, bias=False)
            (4): BatchNorm2d(116, eps=1e-05, momentum=0.1, affine=True, track_running_stats=True)
            (5): Conv2d(116, 116, kernel_size=(1, 1), stride=(1, 1), bias=False)
            (6): BatchNorm2d(116, eps=1e-05, momentum=0.1, affine=True, track_running_stats=True)
            (7): ReLU(inplace=True)
          )
        )
      )
      (stage4): Sequential(
        (0): InvertedResidual(
          (branch1): Sequential(
            (0): Conv2d(232, 232, kernel_size=(3, 3), stride=(2, 2), padding=(1, 1), groups=232, bias=False)
            (1): BatchNorm2d(232, eps=1e-05, momentum=0.1, affine=True, track_running_stats=True)
            (2): Conv2d(232, 232, kernel_size=(1, 1), stride=(1, 1), bias=False)
            (3): BatchNorm2d(232, eps=1e-05, momentum=0.1, affine=True, track_running_stats=True)
            (4): ReLU(inplace=True)
          )
          (branch2): Sequential(
            (0): Conv2d(232, 232, kernel_size=(1, 1), stride=(1, 1), bias=False)
            (1): BatchNorm2d(232, eps=1e-05, momentum=0.1, affine=True, track_running_stats=True)
            (2): ReLU(inplace=True)
            (3): Conv2d(232, 232, kernel_size=(3, 3), stride=(2, 2), padding=(1, 1), groups=232, bias=False)
            (4): BatchNorm2d(232, eps=1e-05, momentum=0.1, affine=True, track_running_stats=True)
            (5): Conv2d(232, 232, kernel_size=(1, 1), stride=(1, 1), bias=False)
            (6): BatchNorm2d(232, eps=1e-05, momentum=0.1, affine=True, track_running_stats=True)
            (7): ReLU(inplace=True)
          )
        )
        (1): InvertedResidual(
          (branch1): Sequential()
          (branch2): Sequential(
            (0): Conv2d(232, 232, kernel_size=(1, 1), stride=(1, 1), bias=False)
            (1): BatchNorm2d(232, eps=1e-05, momentum=0.1, affine=True, track_running_stats=True)
            (2): ReLU(inplace=True)
            (3): Conv2d(232, 232, kernel_size=(3, 3), stride=(1, 1), padding=(1, 1), groups=232, bias=False)
            (4): BatchNorm2d(232, eps=1e-05, momentum=0.1, affine=True, track_running_stats=True)
            (5): Conv2d(232, 232, kernel_size=(1, 1), stride=(1, 1), bias=False)
            (6): BatchNorm2d(232, eps=1e-05, momentum=0.1, affine=True, track_running_stats=True)
            (7): ReLU(inplace=True)
          )
        )
        (2): InvertedResidual(
          (branch1): Sequential()
          (branch2): Sequential(
            (0): Conv2d(232, 232, kernel_size=(1, 1), stride=(1, 1), bias=False)
            (1): BatchNorm2d(232, eps=1e-05, momentum=0.1, affine=True, track_running_stats=True)
            (2): ReLU(inplace=True)
            (3): Conv2d(232, 232, kernel_size=(3, 3), stride=(1, 1), padding=(1, 1), groups=232, bias=False)
            (4): BatchNorm2d(232, eps=1e-05, momentum=0.1, affine=True, track_running_stats=True)
            (5): Conv2d(232, 232, kernel_size=(1, 1), stride=(1, 1), bias=False)
            (6): BatchNorm2d(232, eps=1e-05, momentum=0.1, affine=True, track_running_stats=True)
            (7): ReLU(inplace=True)
          )
        )
        (3): InvertedResidual(
          (branch1): Sequential()
          (branch2): Sequential(
            (0): Conv2d(232, 232, kernel_size=(1, 1), stride=(1, 1), bias=False)
            (1): BatchNorm2d(232, eps=1e-05, momentum=0.1, affine=True, track_running_stats=True)
            (2): ReLU(inplace=True)
            (3): Conv2d(232, 232, kernel_size=(3, 3), stride=(1, 1), padding=(1, 1), groups=232, bias=False)
            (4): BatchNorm2d(232, eps=1e-05, momentum=0.1, affine=True, track_running_stats=True)
            (5): Conv2d(232, 232, kernel_size=(1, 1), stride=(1, 1), bias=False)
            (6): BatchNorm2d(232, eps=1e-05, momentum=0.1, affine=True, track_running_stats=True)
            (7): ReLU(inplace=True)
          )
        )
      )
      (conv5): Sequential(
        (0): Conv2d(464, 1024, kernel_size=(1, 1), stride=(1, 1), bias=False)
        (1): BatchNorm2d(1024, eps=1e-05, momentum=0.1, affine=True, track_running_stats=True)
        (2): ReLU(inplace=True)
      )
      (fc): None
    )
  )
  (aggregator): TokenMudule(
    (token_block): TokenBlock(
      (space_self_aware): SpaceSelfAware(
        (pad): ZeroPad2d((1, 1, 2, 0))
        (unfold): Unfold(kernel_size=(3, 3), dilation=1, padding=0, stride=1)
      )
      (space_fusion): Sequential(
        (0): L2Norm()
        (1): GeneralizedMeanPooling(3.0, output_size=1)
      )
      (channel): Mlp(
        (fc1): Linear(in_features=1024, out_features=768, bias=True)
        (act): GELU(approximate='none')
        (drop1): Dropout(p=0.0, inplace=False)
        (fc2): Linear(in_features=768, out_features=1024, bias=True)
        (drop2): Dropout(p=0.0, inplace=False)
      )
    )
    (head): GeMHead(
      (pool): GeneralizedMeanPooling(3.0, output_size=1)
      (fc): Linear(in_features=1024, out_features=4096, bias=True)
    )
  )
)
2024-05-05 11:18:29   Val set: < MSLS, msls-val - #database: 18871; #queries: 747 >
2024-05-05 11:18:29   Start training epoch: 00
2024-05-05 11:27:46   Finished epoch 00 in 0:09:16, average epoch loss = 1.5076
2024-05-05 11:28:17   Ranking results: msls_val R@1: 0.3297, R@5: 0.4527, R@10: 0.5162, R@15: 0.5595, R@20: 0.5784, R@50: 0.6703, R@100: 0.7351
…
