…
ov2_vitb14_pretrain.pth', infer_batch_size=300, kernel_size=3, lr=0.0001, mlp_ratio=1, nc=4096, num_trainable_blocks=4, num_workers=4, optim='adam', patience=3, recall_values=[1, 5, 10, 100], resize=[224, 224], save_dir='logs/2024-05-01_08-21-40', seed=0, train_batch_size=160, val_set_names=['msls_val'])
2024-05-01 08:21:40   The outputs are being saved in logs/2024-05-01_08-21-40
2024-05-01 08:21:40   validation dataset names:['msls_val']
2024-05-01 08:21:40   Using 2 GPUs and 64 CPUs
2024-05-01 08:21:46   GeoLocalizationNet(
  (backbone): ViT(
    (model): VisionTransformer(
      (conv_proj): Conv2d(3, 768, kernel_size=(32, 32), stride=(32, 32))
      (encoder): Encoder(
        (dropout): Dropout(p=0.0, inplace=False)
        (layers): Sequential(
          (encoder_layer_0): EncoderBlock(
            (ln_1): LayerNorm((768,), eps=1e-06, elementwise_affine=True)
            (self_attention): MultiheadAttention(
              (out_proj): NonDynamicallyQuantizableLinear(in_features=768, out_features=768, bias=True)
            )
            (dropout): Dropout(p=0.0, inplace=False)
            (ln_2): LayerNorm((768,), eps=1e-06, elementwise_affine=True)
            (mlp): MLPBlock(
              (0): Linear(in_features=768, out_features=3072, bias=True)
              (1): GELU(approximate='none')
              (2): Dropout(p=0.0, inplace=False)
              (3): Linear(in_features=3072, out_features=768, bias=True)
              (4): Dropout(p=0.0, inplace=False)
            )
          )
          (encoder_layer_1): EncoderBlock(
            (ln_1): LayerNorm((768,), eps=1e-06, elementwise_affine=True)
            (self_attention): MultiheadAttention(
              (out_proj): NonDynamicallyQuantizableLinear(in_features=768, out_features=768, bias=True)
            )
            (dropout): Dropout(p=0.0, inplace=False)
            (ln_2): LayerNorm((768,), eps=1e-06, elementwise_affine=True)
            (mlp): MLPBlock(
              (0): Linear(in_features=768, out_features=3072, bias=True)
              (1): GELU(approximate='none')
              (2): Dropout(p=0.0, inplace=False)
              (3): Linear(in_features=3072, out_features=768, bias=True)
              (4): Dropout(p=0.0, inplace=False)
            )
          )
          (encoder_layer_2): EncoderBlock(
            (ln_1): LayerNorm((768,), eps=1e-06, elementwise_affine=True)
            (self_attention): MultiheadAttention(
              (out_proj): NonDynamicallyQuantizableLinear(in_features=768, out_features=768, bias=True)
            )
            (dropout): Dropout(p=0.0, inplace=False)
            (ln_2): LayerNorm((768,), eps=1e-06, elementwise_affine=True)
            (mlp): MLPBlock(
              (0): Linear(in_features=768, out_features=3072, bias=True)
              (1): GELU(approximate='none')
              (2): Dropout(p=0.0, inplace=False)
              (3): Linear(in_features=3072, out_features=768, bias=True)
              (4): Dropout(p=0.0, inplace=False)
            )
          )
          (encoder_layer_3): EncoderBlock(
            (ln_1): LayerNorm((768,), eps=1e-06, elementwise_affine=True)
            (self_attention): MultiheadAttention(
              (out_proj): NonDynamicallyQuantizableLinear(in_features=768, out_features=768, bias=True)
            )
            (dropout): Dropout(p=0.0, inplace=False)
            (ln_2): LayerNorm((768,), eps=1e-06, elementwise_affine=True)
            (mlp): MLPBlock(
              (0): Linear(in_features=768, out_features=3072, bias=True)
              (1): GELU(approximate='none')
              (2): Dropout(p=0.0, inplace=False)
              (3): Linear(in_features=3072, out_features=768, bias=True)
              (4): Dropout(p=0.0, inplace=False)
            )
          )
          (encoder_layer_4): EncoderBlock(
            (ln_1): LayerNorm((768,), eps=1e-06, elementwise_affine=True)
            (self_attention): MultiheadAttention(
              (out_proj): NonDynamicallyQuantizableLinear(in_features=768, out_features=768, bias=True)
            )
            (dropout): Dropout(p=0.0, inplace=False)
            (ln_2): LayerNorm((768,), eps=1e-06, elementwise_affine=True)
            (mlp): MLPBlock(
              (0): Linear(in_features=768, out_features=3072, bias=True)
              (1): GELU(approximate='none')
              (2): Dropout(p=0.0, inplace=False)
              (3): Linear(in_features=3072, out_features=768, bias=True)
              (4): Dropout(p=0.0, inplace=False)
            )
          )
          (encoder_layer_5): EncoderBlock(
            (ln_1): LayerNorm((768,), eps=1e-06, elementwise_affine=True)
            (self_attention): MultiheadAttention(
              (out_proj): NonDynamicallyQuantizableLinear(in_features=768, out_features=768, bias=True)
            )
            (dropout): Dropout(p=0.0, inplace=False)
            (ln_2): LayerNorm((768,), eps=1e-06, elementwise_affine=True)
            (mlp): MLPBlock(
              (0): Linear(in_features=768, out_features=3072, bias=True)
              (1): GELU(approximate='none')
              (2): Dropout(p=0.0, inplace=False)
              (3): Linear(in_features=3072, out_features=768, bias=True)
              (4): Dropout(p=0.0, inplace=False)
            )
          )
          (encoder_layer_6): EncoderBlock(
            (ln_1): LayerNorm((768,), eps=1e-06, elementwise_affine=True)
            (self_attention): MultiheadAttention(
              (out_proj): NonDynamicallyQuantizableLinear(in_features=768, out_features=768, bias=True)
            )
            (dropout): Dropout(p=0.0, inplace=False)
            (ln_2): LayerNorm((768,), eps=1e-06, elementwise_affine=True)
            (mlp): MLPBlock(
              (0): Linear(in_features=768, out_features=3072, bias=True)
              (1): GELU(approximate='none')
              (2): Dropout(p=0.0, inplace=False)
              (3): Linear(in_features=3072, out_features=768, bias=True)
              (4): Dropout(p=0.0, inplace=False)
            )
          )
          (encoder_layer_7): EncoderBlock(
            (ln_1): LayerNorm((768,), eps=1e-06, elementwise_affine=True)
            (self_attention): MultiheadAttention(
              (out_proj): NonDynamicallyQuantizableLinear(in_features=768, out_features=768, bias=True)
            )
            (dropout): Dropout(p=0.0, inplace=False)
            (ln_2): LayerNorm((768,), eps=1e-06, elementwise_affine=True)
            (mlp): MLPBlock(
              (0): Linear(in_features=768, out_features=3072, bias=True)
              (1): GELU(approximate='none')
              (2): Dropout(p=0.0, inplace=False)
              (3): Linear(in_features=3072, out_features=768, bias=True)
              (4): Dropout(p=0.0, inplace=False)
            )
          )
          (encoder_layer_8): EncoderBlock(
            (ln_1): LayerNorm((768,), eps=1e-06, elementwise_affine=True)
            (self_attention): MultiheadAttention(
              (out_proj): NonDynamicallyQuantizableLinear(in_features=768, out_features=768, bias=True)
            )
            (dropout): Dropout(p=0.0, inplace=False)
            (ln_2): LayerNorm((768,), eps=1e-06, elementwise_affine=True)
            (mlp): MLPBlock(
              (0): Linear(in_features=768, out_features=3072, bias=True)
              (1): GELU(approximate='none')
              (2): Dropout(p=0.0, inplace=False)
              (3): Linear(in_features=3072, out_features=768, bias=True)
              (4): Dropout(p=0.0, inplace=False)
            )
          )
          (encoder_layer_9): EncoderBlock(
            (ln_1): LayerNorm((768,), eps=1e-06, elementwise_affine=True)
            (self_attention): MultiheadAttention(
              (out_proj): NonDynamicallyQuantizableLinear(in_features=768, out_features=768, bias=True)
            )
            (dropout): Dropout(p=0.0, inplace=False)
            (ln_2): LayerNorm((768,), eps=1e-06, elementwise_affine=True)
            (mlp): MLPBlock(
              (0): Linear(in_features=768, out_features=3072, bias=True)
              (1): GELU(approximate='none')
              (2): Dropout(p=0.0, inplace=False)
              (3): Linear(in_features=3072, out_features=768, bias=True)
              (4): Dropout(p=0.0, inplace=False)
            )
          )
          (encoder_layer_10): EncoderBlock(
            (ln_1): LayerNorm((768,), eps=1e-06, elementwise_affine=True)
            (self_attention): MultiheadAttention(
              (out_proj): NonDynamicallyQuantizableLinear(in_features=768, out_features=768, bias=True)
            )
            (dropout): Dropout(p=0.0, inplace=False)
            (ln_2): LayerNorm((768,), eps=1e-06, elementwise_affine=True)
            (mlp): MLPBlock(
              (0): Linear(in_features=768, out_features=3072, bias=True)
              (1): GELU(approximate='none')
              (2): Dropout(p=0.0, inplace=False)
              (3): Linear(in_features=3072, out_features=768, bias=True)
              (4): Dropout(p=0.0, inplace=False)
            )
          )
          (encoder_layer_11): EncoderBlock(
            (ln_1): LayerNorm((768,), eps=1e-06, elementwise_affine=True)
            (self_attention): MultiheadAttention(
              (out_proj): NonDynamicallyQuantizableLinear(in_features=768, out_features=768, bias=True)
            )
            (dropout): Dropout(p=0.0, inplace=False)
            (ln_2): LayerNorm((768,), eps=1e-06, elementwise_affine=True)
            (mlp): MLPBlock(
              (0): Linear(in_features=768, out_features=3072, bias=True)
              (1): GELU(approximate='none')
              (2): Dropout(p=0.0, inplace=False)
              (3): Linear(in_features=3072, out_features=768, bias=True)
              (4): Dropout(p=0.0, inplace=False)
            )
          )
        )
        (ln): LayerNorm((768,), eps=1e-06, elementwise_affine=True)
      )
      (heads): Sequential(
        (head): Linear(in_features=768, out_features=1000, bias=True)
      )
    )
  )
  (aggregator): GeMHead(
    (pool): GeneralizedMeanPooling(3.0, output_size=1)
    (fc): Linear(in_features=768, out_features=4096, bias=True)
  )
)
2024-05-01 08:21:47   Val set: < MSLS, msls-val - #database: 18871; #queries: 747 >
2024-05-01 08:21:47   Start training epoch: 00
2024-05-01 08:35:03   Finished epoch 00 in 0:13:15, average epoch loss = 1.2774
2024-05-01 08:35:40   Ranking results: msls_val R@1: 0.3811, R@5: 0.5230, R@10: 0.5811, R@15: 0.6081, R@20: 0.6378, R@50: 0.7095, R@100: 0.7703
…
