…
tio=0.75, nc=4096, num_trainable_blocks=4, num_workers=4, optim='adam', patience=3, recall_values=[1, 5, 10, 100], resize=[224, 224], save_dir='logs/2024-05-05_15-06-53-shufflenet_v2_x1_5-gemhead', seed=0, train_batch_size=160, val_set_names=['msls_val'])
2024-05-05 15:06:53   The outputs are being saved in logs/2024-05-05_15-06-53-shufflenet_v2_x1_5-gemhead
2024-05-05 15:06:53   validation dataset names:['msls_val']
2024-05-05 15:06:54   Using 2 GPUs and 64 CPUs
2024-05-05 15:06:56   GeoLocalizationNet(
  (backbone): ShuffleNet(
    (model): ShuffleNetV2(
      (conv1): Sequential(
        (0): Conv2d(3, 24, kernel_size=(3, 3), stride=(2, 2), padding=(1, 1), bias=False)
        (1): BatchNorm2d(24, eps=1e-05, momentum=0.1, affine=True, track_running_stats=True)
        (2): ReLU(inplace=True)
      )
      (maxpool): MaxPool2d(kernel_size=3, stride=2, padding=1, dilation=1, ceil_mode=False)
      (stage2): Sequential(
        (0): InvertedResidual(
          (branch1): Sequential(
            (0): Conv2d(24, 24, kernel_size=(3, 3), stride=(2, 2), padding=(1, 1), groups=24, bias=False)
            (1): BatchNorm2d(24, eps=1e-05, momentum=0.1, affine=True, track_running_stats=True)
            (2): Conv2d(24, 88, kernel_size=(1, 1), stride=(1, 1), bias=False)
            (3): BatchNorm2d(88, eps=1e-05, momentum=0.1, affine=True, track_running_stats=True)
            (4): ReLU(inplace=True)
          )
          (branch2): Sequential(
            (0): Conv2d(24, 88, kernel_size=(1, 1), stride=(1, 1), bias=False)
            (1): BatchNorm2d(88, eps=1e-05, momentum=0.1, affine=True, track_running_stats=True)
            (2): ReLU(inplace=True)
            (3): Conv2d(88, 88, kernel_size=(3, 3), stride=(2, 2), padding=(1, 1), groups=88, bias=False)
            (4): BatchNorm2d(88, eps=1e-05, momentum=0.1, affine=True, track_running_stats=True)
            (5): Conv2d(88, 88, kernel_size=(1, 1), stride=(1, 1), bias=False)
            (6): BatchNorm2d(88, eps=1e-05, momentum=0.1, affine=True, track_running_stats=True)
            (7): ReLU(inplace=True)
          )
        )
        (1): InvertedResidual(
          (branch1): Sequential()
          (branch2): Sequential(
            (0): Conv2d(88, 88, kernel_size=(1, 1), stride=(1, 1), bias=False)
            (1): BatchNorm2d(88, eps=1e-05, momentum=0.1, affine=True, track_running_stats=True)
            (2): ReLU(inplace=True)
            (3): Conv2d(88, 88, kernel_size=(3, 3), stride=(1, 1), padding=(1, 1), groups=88, bias=False)
            (4): BatchNorm2d(88, eps=1e-05, momentum=0.1, affine=True, track_running_stats=True)
            (5): Conv2d(88, 88, kernel_size=(1, 1), stride=(1, 1), bias=False)
            (6): BatchNorm2d(88, eps=1e-05, momentum=0.1, affine=True, track_running_stats=True)
            (7): ReLU(inplace=True)
          )
        )
        (2): InvertedResidual(
          (branch1): Sequential()
          (branch2): Sequential(
            (0): Conv2d(88, 88, kernel_size=(1, 1), stride=(1, 1), bias=False)
            (1): BatchNorm2d(88, eps=1e-05, momentum=0.1, affine=True, track_running_stats=True)
            (2): ReLU(inplace=True)
            (3): Conv2d(88, 88, kernel_size=(3, 3), stride=(1, 1), padding=(1, 1), groups=88, bias=False)
            (4): BatchNorm2d(88, eps=1e-05, momentum=0.1, affine=True, track_running_stats=True)
            (5): Conv2d(88, 88, kernel_size=(1, 1), stride=(1, 1), bias=False)
            (6): BatchNorm2d(88, eps=1e-05, momentum=0.1, affine=True, track_running_stats=True)
            (7): ReLU(inplace=True)
          )
        )
        (3): InvertedResidual(
          (branch1): Sequential()
          (branch2): Sequential(
            (0): Conv2d(88, 88, kernel_size=(1, 1), stride=(1, 1), bias=False)
            (1): BatchNorm2d(88, eps=1e-05, momentum=0.1, affine=True, track_running_stats=True)
            (2): ReLU(inplace=True)
            (3): Conv2d(88, 88, kernel_size=(3, 3), stride=(1, 1), padding=(1, 1), groups=88, bias=False)
            (4): BatchNorm2d(88, eps=1e-05, momentum=0.1, affine=True, track_running_stats=True)
            (5): Conv2d(88, 88, kernel_size=(1, 1), stride=(1, 1), bias=False)
            (6): BatchNorm2d(88, eps=1e-05, momentum=0.1, affine=True, track_running_stats=True)
            (7): ReLU(inplace=True)
          )
        )
      )
      (stage3): Sequential(
        (0): InvertedResidual(
          (branch1): Sequential(
            (0): Conv2d(176, 176, kernel_size=(3, 3), stride=(2, 2), padding=(1, 1), groups=176, bias=False)
            (1): BatchNorm2d(176, eps=1e-05, momentum=0.1, affine=True, track_running_stats=True)
            (2): Conv2d(176, 176, kernel_size=(1, 1), stride=(1, 1), bias=False)
            (3): BatchNorm2d(176, eps=1e-05, momentum=0.1, affine=True, track_running_stats=True)
            (4): ReLU(inplace=True)
          )
          (branch2): Sequential(
            (0): Conv2d(176, 176, kernel_size=(1, 1), stride=(1, 1), bias=False)
            (1): BatchNorm2d(176, eps=1e-05, momentum=0.1, affine=True, track_running_stats=True)
            (2): ReLU(inplace=True)
            (3): Conv2d(176, 176, kernel_size=(3, 3), stride=(2, 2), padding=(1, 1), groups=176, bias=False)
            (4): BatchNorm2d(176, eps=1e-05, momentum=0.1, affine=True, track_running_stats=True)
            (5): Conv2d(176, 176, kernel_size=(1, 1), stride=(1, 1), bias=False)
            (6): BatchNorm2d(176, eps=1e-05, momentum=0.1, affine=True, track_running_stats=True)
            (7): ReLU(inplace=True)
          )
        )
        (1): InvertedResidual(
          (branch1): Sequential()
          (branch2): Sequential(
            (0): Conv2d(176, 176, kernel_size=(1, 1), stride=(1, 1), bias=False)
            (1): BatchNorm2d(176, eps=1e-05, momentum=0.1, affine=True, track_running_stats=True)
            (2): ReLU(inplace=True)
            (3): Conv2d(176, 176, kernel_size=(3, 3), stride=(1, 1), padding=(1, 1), groups=176, bias=False)
            (4): BatchNorm2d(176, eps=1e-05, momentum=0.1, affine=True, track_running_stats=True)
            (5): Conv2d(176, 176, kernel_size=(1, 1), stride=(1, 1), bias=False)
            (6): BatchNorm2d(176, eps=1e-05, momentum=0.1, affine=True, track_running_stats=True)
            (7): ReLU(inplace=True)
          )
        )
        (2): InvertedResidual(
          (branch1): Sequential()
          (branch2): Sequential(
            (0): Conv2d(176, 176, kernel_size=(1, 1), stride=(1, 1), bias=False)
            (1): BatchNorm2d(176, eps=1e-05, momentum=0.1, affine=True, track_running_stats=True)
            (2): ReLU(inplace=True)
            (3): Conv2d(176, 176, kernel_size=(3, 3), stride=(1, 1), padding=(1, 1), groups=176, bias=False)
            (4): BatchNorm2d(176, eps=1e-05, momentum=0.1, affine=True, track_running_stats=True)
            (5): Conv2d(176, 176, kernel_size=(1, 1), stride=(1, 1), bias=False)
            (6): BatchNorm2d(176, eps=1e-05, momentum=0.1, affine=True, track_running_stats=True)
            (7): ReLU(inplace=True)
          )
        )
        (3): InvertedResidual(
          (branch1): Sequential()
          (branch2): Sequential(
            (0): Conv2d(176, 176, kernel_size=(1, 1), stride=(1, 1), bias=False)
            (1): BatchNorm2d(176, eps=1e-05, momentum=0.1, affine=True, track_running_stats=True)
            (2): ReLU(inplace=True)
            (3): Conv2d(176, 176, kernel_size=(3, 3), stride=(1, 1), padding=(1, 1), groups=176, bias=False)
            (4): BatchNorm2d(176, eps=1e-05, momentum=0.1, affine=True, track_running_stats=True)
            (5): Conv2d(176, 176, kernel_size=(1, 1), stride=(1, 1), bias=False)
            (6): BatchNorm2d(176, eps=1e-05, momentum=0.1, affine=True, track_running_stats=True)
            (7): ReLU(inplace=True)
          )
        )
        (4): InvertedResidual(
          (branch1): Sequential()
          (branch2): Sequential(
            (0): Conv2d(176, 176, kernel_size=(1, 1), stride=(1, 1), bias=False)
            (1): BatchNorm2d(176, eps=1e-05, momentum=0.1, affine=True, track_running_stats=True)
            (2): ReLU(inplace=True)
            (3): Conv2d(176, 176, kernel_size=(3, 3), stride=(1, 1), padding=(1, 1), groups=176, bias=False)
            (4): BatchNorm2d(176, eps=1e-05, momentum=0.1, affine=True, track_running_stats=True)
            (5): Conv2d(176, 176, kernel_size=(1, 1), stride=(1, 1), bias=False)
            (6): BatchNorm2d(176, eps=1e-05, momentum=0.1, affine=True, track_running_stats=True)
            (7): ReLU(inplace=True)
          )
        )
        (5): InvertedResidual(
          (branch1): Sequential()
          (branch2): Sequential(
            (0): Conv2d(176, 176, kernel_size=(1, 1), stride=(1, 1), bias=False)
            (1): BatchNorm2d(176, eps=1e-05, momentum=0.1, affine=True, track_running_stats=True)
            (2): ReLU(inplace=True)
            (3): Conv2d(176, 176, kernel_size=(3, 3), stride=(1, 1), padding=(1, 1), groups=176, bias=False)
            (4): BatchNorm2d(176, eps=1e-05, momentum=0.1, affine=True, track_running_stats=True)
            (5): Conv2d(176, 176, kernel_size=(1, 1), stride=(1, 1), bias=False)
            (6): BatchNorm2d(176, eps=1e-05, momentum=0.1, affine=True, track_running_stats=True)
            (7): ReLU(inplace=True)
          )
        )
        (6): InvertedResidual(
          (branch1): Sequential()
          (branch2): Sequential(
            (0): Conv2d(176, 176, kernel_size=(1, 1), stride=(1, 1), bias=False)
            (1): BatchNorm2d(176, eps=1e-05, momentum=0.1, affine=True, track_running_stats=True)
            (2): ReLU(inplace=True)
            (3): Conv2d(176, 176, kernel_size=(3, 3), stride=(1, 1), padding=(1, 1), groups=176, bias=False)
            (4): BatchNorm2d(176, eps=1e-05, momentum=0.1, affine=True, track_running_stats=True)
            (5): Conv2d(176, 176, kernel_size=(1, 1), stride=(1, 1), bias=False)
            (6): BatchNorm2d(176, eps=1e-05, momentum=0.1, affine=True, track_running_stats=True)
            (7): ReLU(inplace=True)
          )
        )
        (7): InvertedResidual(
          (branch1): Sequential()
          (branch2): Sequential(
            (0): Conv2d(176, 176, kernel_size=(1, 1), stride=(1, 1), bias=False)
            (1): BatchNorm2d(176, eps=1e-05, momentum=0.1, affine=True, track_running_stats=True)
            (2): ReLU(inplace=True)
            (3): Conv2d(176, 176, kernel_size=(3, 3), stride=(1, 1), padding=(1, 1), groups=176, bias=False)
            (4): BatchNorm2d(176, eps=1e-05, momentum=0.1, affine=True, track_running_stats=True)
            (5): Conv2d(176, 176, kernel_size=(1, 1), stride=(1, 1), bias=False)
            (6): BatchNorm2d(176, eps=1e-05, momentum=0.1, affine=True, track_running_stats=True)
            (7): ReLU(inplace=True)
          )
        )
      )
      (stage4): Sequential(
        (0): InvertedResidual(
          (branch1): Sequential(
            (0): Conv2d(352, 352, kernel_size=(3, 3), stride=(2, 2), padding=(1, 1), groups=352, bias=False)
            (1): BatchNorm2d(352, eps=1e-05, momentum=0.1, affine=True, track_running_stats=True)
            (2): Conv2d(352, 352, kernel_size=(1, 1), stride=(1, 1), bias=False)
            (3): BatchNorm2d(352, eps=1e-05, momentum=0.1, affine=True, track_running_stats=True)
            (4): ReLU(inplace=True)
          )
          (branch2): Sequential(
            (0): Conv2d(352, 352, kernel_size=(1, 1), stride=(1, 1), bias=False)
            (1): BatchNorm2d(352, eps=1e-05, momentum=0.1, affine=True, track_running_stats=True)
            (2): ReLU(inplace=True)
            (3): Conv2d(352, 352, kernel_size=(3, 3), stride=(2, 2), padding=(1, 1), groups=352, bias=False)
            (4): BatchNorm2d(352, eps=1e-05, momentum=0.1, affine=True, track_running_stats=True)
            (5): Conv2d(352, 352, kernel_size=(1, 1), stride=(1, 1), bias=False)
            (6): BatchNorm2d(352, eps=1e-05, momentum=0.1, affine=True, track_running_stats=True)
            (7): ReLU(inplace=True)
          )
        )
        (1): InvertedResidual(
          (branch1): Sequential()
          (branch2): Sequential(
            (0): Conv2d(352, 352, kernel_size=(1, 1), stride=(1, 1), bias=False)
            (1): BatchNorm2d(352, eps=1e-05, momentum=0.1, affine=True, track_running_stats=True)
            (2): ReLU(inplace=True)
            (3): Conv2d(352, 352, kernel_size=(3, 3), stride=(1, 1), padding=(1, 1), groups=352, bias=False)
            (4): BatchNorm2d(352, eps=1e-05, momentum=0.1, affine=True, track_running_stats=True)
            (5): Conv2d(352, 352, kernel_size=(1, 1), stride=(1, 1), bias=False)
            (6): BatchNorm2d(352, eps=1e-05, momentum=0.1, affine=True, track_running_stats=True)
            (7): ReLU(inplace=True)
          )
        )
        (2): InvertedResidual(
          (branch1): Sequential()
          (branch2): Sequential(
            (0): Conv2d(352, 352, kernel_size=(1, 1), stride=(1, 1), bias=False)
            (1): BatchNorm2d(352, eps=1e-05, momentum=0.1, affine=True, track_running_stats=True)
            (2): ReLU(inplace=True)
            (3): Conv2d(352, 352, kernel_size=(3, 3), stride=(1, 1), padding=(1, 1), groups=352, bias=False)
            (4): BatchNorm2d(352, eps=1e-05, momentum=0.1, affine=True, track_running_stats=True)
            (5): Conv2d(352, 352, kernel_size=(1, 1), stride=(1, 1), bias=False)
            (6): BatchNorm2d(352, eps=1e-05, momentum=0.1, affine=True, track_running_stats=True)
            (7): ReLU(inplace=True)
          )
        )
        (3): InvertedResidual(
          (branch1): Sequential()
          (branch2): Sequential(
            (0): Conv2d(352, 352, kernel_size=(1, 1), stride=(1, 1), bias=False)
            (1): BatchNorm2d(352, eps=1e-05, momentum=0.1, affine=True, track_running_stats=True)
            (2): ReLU(inplace=True)
            (3): Conv2d(352, 352, kernel_size=(3, 3), stride=(1, 1), padding=(1, 1), groups=352, bias=False)
            (4): BatchNorm2d(352, eps=1e-05, momentum=0.1, affine=True, track_running_stats=True)
            (5): Conv2d(352, 352, kernel_size=(1, 1), stride=(1, 1), bias=False)
            (6): BatchNorm2d(352, eps=1e-05, momentum=0.1, affine=True, track_running_stats=True)
            (7): ReLU(inplace=True)
          )
        )
      )
      (conv5): Sequential(
        (0): Conv2d(704, 1024, kernel_size=(1, 1), stride=(1, 1), bias=False)
        (1): BatchNorm2d(1024, eps=1e-05, momentum=0.1, affine=True, track_running_stats=True)
        (2): ReLU(inplace=True)
      )
      (fc): None
    )
  )
  (aggregator): GeMHead(
    (pool): GeneralizedMeanPooling(3.0, output_size=1)
    (fc): Linear(in_features=1024, out_features=4096, bias=True)
  )
)
2024-05-05 15:06:57   Val set: < MSLS, msls-val - #database: 18871; #queries: 747 >
2024-05-05 15:06:57   Start training epoch: 00
2024-05-05 15:16:27   Finished epoch 00 in 0:09:30, average epoch loss = 1.1647
2024-05-05 15:16:58   Ranking results: msls_val R@1: 0.3838, R@5: 0.5243, R@10: 0.5959, R@15: 0.6392, R@20: 0.6676, R@50: 0.7486, R@100: 0.7959
…
